code/model/microplastic_image_classifier_antioverfit.tflite (tflite, 17220 bytes, 15 tensors)

arith.constant f4 [8]
000000 b7 0a 66 bd 90 de 96 bd 8b af a4 bc 25 02 b1 3c
       -0.056162562 -0.07366669 -0.020103237 0.021607468
000010 e0 e6 36 bb 31 c4 a2 3c 9c 8e 9f bc 23 c5 90 bd
       -0.0027908608 0.019868942 -0.019477181 -0.07068851

arith.constant1 f4 [16]
000000 5f 86 78 bd 1e bc b3 3c 1a 7c 5c 3c 18 9a 03 3c
       -0.06067502 0.021940287 0.0134573225 0.008032344
000010 9b 9a 96 3b 58 e8 81 3a 7c a6 e1 bd b9 79 51 bc
       0.004596067 0.0009911163 -0.110180825 -0.012785369
000020 2d af 5b 3c 0c 3b d5 bb 15 7a e3 3c fd e4 8a bc
       0.013408464 -0.006507283 0.027768174 -0.016954893
000030 9f 91 98 3c eb 28 f7 3c 5e c6 92 bc 19 aa a4 3c
       0.018624125 0.030170878 -0.017916854 0.02010064

arith.constant2 f4 [12]
000000 3d 3b 77 3c 2f de c2 bb 0b f7 c8 3b c2 a7 2c 3c
       0.015089807 -0.0059468965 0.0061329654 0.010538043
000010 5c 5d 4d 3a df 75 56 bd 0d 76 09 bc 96 e8 b4 3b
       0.0007834041 -0.052358504 -0.008389962 0.0055208905
000020 84 8e 3a 3d 2d d3 53 3b 48 78 db bc 17 cc 9d bc
       0.04554607 0.0032321915 -0.026790753 -0.019262357

arith.constant3 f4 [1, 8]
000000 5e 8b ad 40 e5 d7 f2 bd 2b c6 f8 be d6 99 c0 3e
       5.4232626 -0.11857585 -0.4858869 0.37617368
000010 fd c8 00 3f 7b 50 66 3d 17 77 c8 be 64 f8 dd bd
       0.50306684 0.056229096 -0.39153358 -0.108383924

arith.constant5 f4 [16, 3, 3, 12]
000000 e9 6b 90 3d b1 94 e7 3a 24 cf a0 bd 9a d0 5d 3d
       0.07051832 0.0017668215 -0.07852009 0.054154016
000010 e7 e8 99 3d ef a3 c3 bd 45 1c a8 3d e9 ac 15 3e
       0.07515126 -0.09552752 0.08208517 0.14616741
000020 e1 19 35 be 4a f2 8c b9 e6 ad 62 bd de 13 fc bc
       -0.17685653 -0.000268834 -0.055341624 -0.030771192
000030 6c 31 a9 bd 44 74 cd 3d 84 ea 93 bd 29 28 32 bd
       -0.082613796 0.100319415 -0.07222465 -0.04349533
000040 14 77 72 bd 27 d8 6e bc 82 95 4b 3b 42 4c d3 3d
       -0.059195593 -0.014577902 0.0031064455 0.103172794
000050 76 82 24 be 26 74 c3 3a 00 3f 08 be 92 ca 18 be
       -0.16065392 0.0014911934 -0.13305283 -0.14921024
000060 0b 7e 72 bd 64 04 50 bc e2 b4 af bd 15 ca f2 3c
       -0.059202235 -0.012696359 -0.085794225 0.029637376
000070 2f 35 da bb c5 bc 0a 3e d4 73 c1 bd 65 15 c2 bd
       -0.006659172 0.13548572 -0.094459206 -0.09476737
000080 3a 2d 11 be 85 56 04 3d de a5 af 3d b5 32 97 bc
       -0.14177409 0.032309074 0.085765585 -0.018456796
000090 dd 49 fc bc 26 55 37 3d 6f 95 67 bd 12 11 8e bd
       -0.03079694 0.04475894 -0.056538995 -0.0693685
0000a0 14 df 39 bd 8d 88 f6 3d 75 1c 01 be 39 7c f5 3d
       -0.04537876 0.12037764 -0.12608512 0.11986584
0000b0 ef 8e 21 bd ee b9 06 bc fc 94 d5 bd 82 ef eb 3d
       -0.039442953 -0.00822304 -0.10428807 0.11520292
0000c0 5d ba e1 bd 00 b3 79 3d ad 2a 98 3d bc f3 d4 bc
       -0.11021874 0.060961723 0.07430015 -0.025995128
0000d0 9a ac ca 3d 01 22 18 3b 67 11 b0 3d 8e 02 14 3d
       0.098962024 0.0023213627 0.08597069 0.03613525
0000e0 b5 4d e9 bd e6 a4 79 bd 7d 25 d6 3c 77 0a 1d 3d
       -0.113917746 -0.060948275 0.026140923 0.03834006
0000f0 a0 1d 96 bd d6 57 6b bd 40 00 c6 3d 9e ab d3 3d
       -0.07329869 -0.057456814 0.096680164 0.10335468
000100 8f fb ef 3c 82 8b 0c bd 88 46 32 bc c5 64 08 3e
       0.029294757 -0.034312733 -0.010881074 0.1331969
000110 07 e0 5c 3b 2b f2 bd 3c 8e 45 dd bb c3 93 be bd
       0.0033702867 0.023186764 -0.0067526763 -0.09305527
000120 0f 1c 0d 3b 71 06 e7 bb da b1 29 be 15 2e 67 bd
       0.0021531617 -0.0070503284 -0.16571751 -0.05644043
000130 9e b6 f0 bd 09 05 69 3c 54 22 ea 3d 34 a6 a1 bd
       -0.117535815 0.014222392 0.11432329 -0.07893029
000140 ed 9b 80 bd 78 25 cd bb ac a4 c7 bc fb dc 21 3d
       -0.062797405 -0.00626057 -0.024370514 0.039517384
000150 36 e8 9d 3d c8 7e 0a 3e 5e 28 79 bc 8e 6f a0 3d
       0.07710306 0.13524926 -0.015207378 0.07833777
000160 4d 0c 11 3e 4f 4c 75 bd 88 47 f8 3d 6b 31 09 3e
       0.14164849 -0.059887227 0.121230185 0.13397758
000170 1e b1 d9 bd a3 ac a4 3d 9a f4 8a bd fe 4c 8e 3b
       -0.106294855 0.0804074 -0.06784935 0.0043426743
000180 fa 73 f5 bc b6 8f 7a 3d 42 f0 ad bd 8a 3b 1e bd
       -0.029962528 0.06117221 -0.08493091 -0.038631
000190 97 71 e6 3c 82 6c e5 39 95 01 b1 3d ce e0 95 bd
       0.028130336 0.00043759128 0.0864288 -0.07318269
0001a0 57 fd 97 3b ce d8 8a bd a5 2e 03 3e fa 2a 74 bd
       0.0046383548 -0.067796335 0.12810762 -0.0596113
0001b0 f6 98 c9 3d 7d 98 1e 39 0c ca d1 3d 79 bd 8e 3d
       0.09843628 0.0001512486 0.102436155 0.06969733
0001c0 a1 02 e8 3d 02 df cb b9 70 8d 20 3c ad 61 23 bd
       0.113286264 -0.0003888533 0.009799346 -0.039888073
0001d0 cd 3d 07 3c 5b e9 04 3e 9e 0f 40 3d 6b b8 d9 3d
       0.008254481 0.12979643 0.046889894 0.10630878
0001e0 38 5d 08 bc 56 91 95 bd b7 9b 4e b8 93 bd 2b bd
       -0.008323006 -0.07303111 -4.9259248e-05 -0.04192884
0001f0 ce a3 25 b8 a3 14 9f bd e4 3e e8 bd 14 3f 06 3c
       -3.949162e-05 -0.07767608 -0.113401204 0.00819375
000200 5a 13 59 3d 31 c4 db 3d b4 85 c4 3d 89 e9 84 bd
       0.05299697 0.1073078 0.09595814 -0.06489856
000210 96 e9 64 3d 8e ba 90 bd 5a fb 84 bd 46 43 32 38
       0.055886827 -0.070668325 -0.06493254 4.250116e-05
000220 95 ba 56 3d cb aa 4d bd 59 af fb 3c cf 90 d7 3d
       0.052424032 -0.05021171 0.03072326 0.10525667
000230 17 41 af bd c7 49 59 bd 90 d2 f1 39 45 d4 e9 3c
       -0.08557337 -0.053048875 0.00046123983 0.0285436
000240 cd 33 ce 3d 89 83 75 bd a0 a6 dd 3a 00 ad d3 bd
       0.10068474 -0.059939895 0.001691062 -0.103357315
000250 03 ae e3 bc a6 1c 05 bd a9 cb 2d 3b 0c 08 e5 3d
       -0.027792936 -0.032498024 0.0026519096 0.111831754
000260 43 43 a2 bb 61 a4 c1 bd e8 72 be bd d0 8a 1f bd
       -0.004951866 -0.09455181 -0.092992604 -0.03895074
000270 69 7f 20 3d 70 d4 28 be c9 0b 8a bb 68 ab bc bd
       0.039184008 -0.16487288 -0.0042128307 -0.09212381
000280 9e 3d d4 3d 26 92 f6 3b 2c f8 a3 bc ea 04 9b 3d
       0.10363315 0.0075247465 -0.020015799 0.07569297
000290 80 ef bc b8 77 9a e9 bd 3c 6f d5 3d e8 aa 6f bb
       -9.009149e-05 -0.11406415 0.10421607 -0.0036570374
0002a0 f1 1e 19 3d 22 de 85 3d a6 7c 6e 3a 68 73 33 3d
       0.037383024 0.06536509 0.00090975536 0.04381123
0002b0 84 30 35 bd 10 79 18 be 66 a1 00 3e b3 db 28 bd
       -0.04423572 -0.14889932 0.12561569 -0.041225147
0002c0 2a c4 6f 3d d1 27 d1 bd 1d 03 a1 3d c5 ee 05 bc
       0.058536686 -0.102126725 0.07861922 -0.008174603
0002d0 ca be ec bb c9 1a 19 bd f5 17 4f bd ae ab 7a bd
       -0.0072248923 -0.03737906 -0.050559957 -0.061198883
0002e0 13 cd d7 bd bd 15 f6 bd 06 10 e1 bd f3 e9 e7 b9
       -0.10537162 -0.12015865 -0.10989384 -0.0004423406
0002f0 f6 e4 45 bd 41 e1 92 3d c3 3f 44 bd a3 93 0a be
       -0.048314057 0.0717187 -0.04791237 -0.13532881
000300 72 ad 41 bd c6 03 15 3d 6a 5d 14 3e 87 2e 46 ba
       -0.04728455 0.03638055 0.1448876 -0.00075600337
000310 cb fd ce 3d e7 65 ab bd a3 aa c8 bc 16 33 c3 3d
       0.10107001 -0.08369046 -0.024495428 0.09531228
000320 42 ca b2 3d 39 f0 03 3c 8c 73 7b 3d 3d b9 e1 bd
       0.08729984 0.008052879 0.06138949 -0.110216595
000330 11 4b 19 3c 26 39 cf ba e8 f5 56 3d 7c 25 a4 bd
       0.009356276 -0.0015809878 0.05248061 -0.08014962
000340 75 88 98 bd c1 18 5a 3d df ee 8e bd 4c ab 05 3d
       -0.07447902 0.053246263 -0.06979155 0.032634065
000350 21 75 00 3d a0 3e 03 3d 15 80 a6 bd a6 35 6d 3d
       0.031361703 0.032042146 -0.081298985 0.05791249
000360 41 2e 55 39 fe 14 03 bd 6c 6b 52 3d b3 c7 f9 bd
       0.00020330494 -0.03200244 0.051371977 -0.12196293
000370 63 0a c3 39 52 e0 20 bd 3c 4e 03 3e 90 13 06 3e
       0.00037201037 -0.03927643 0.12822813 0.130934
000380 c5 19 fd 3d a4 1b 02 3e 2d eb f4 3d 77 46 55 bc
       0.12358431 0.12705857 0.11958919 -0.013017288
000390 2d 80 8e bd 24 d2 11 bd 4d f8 e3 bc 89 c4 52 bd
       -0.06958041 -0.035600796 -0.02782836 -0.05145696
0003a0 41 9b 8e 3d e9 0e c8 3d c3 39 d7 3d a3 4f 47 bc
       0.06963206 0.09768469 0.10509064 -0.012164983
0003b0 6a c2 a0 bd f5 90 be bd c8 4a bd 3d 3c 42 3a bb
       -0.078495815 -0.09304992 0.09242779 -0.0028420826
0003c0 b6 19 fa b9 9a e0 d8 3d 7d e5 24 bd c2 ea e4 3d
       -0.00047702872 0.10589714 -0.04025792 0.11177589
0003d0 c8 4f b9 bd 2e 49 3e 3d 5c a9 5c 3d 54 9f 47 bd
       -0.0904842 0.04645651 0.05387245 -0.04873593
0003e0 80 2c 1d bd 17 cd 0a ba c5 4e cf b8 18 0a a3 bd
       -0.038372517 -0.0005294843 -9.885201e-05 -0.079609096
0003f0 20 67 57 bd f0 29 ed 3d fe 5b ae bd 55 8a 04 be
       -0.052588582 0.115802646 -0.0851364 -0.12943394

arith.constant6 f4 [12, 3, 3, 6]
000000 8a 3f 2a bc 10 eb a5 bd de f8 5b 3d 8f f4 35 be
       -0.010391125 -0.08101475 0.053704135 -0.17769073
000010 b8 2d 83 3d 0a fd 76 bd 4e 41 0e be 39 03 8f bd
       0.064052045 -0.06029991 -0.138921 -0.069830365
000020 13 04 70 bd 2c c2 a6 bd 9c f4 b2 3d f6 52 7f 3c
       -0.058597635 -0.08142504 0.08738062 0.015583744
000030 20 f6 00 be b4 69 98 3d 7b 91 db bc fa c5 1d bb
       -0.12593889 0.07442036 -0.026802769 -0.0024074302
000040 35 8e bd bd b9 57 86 bd ad bf 56 3c 12 1d 0a be
       -0.092556395 -0.065597005 0.0131072225 -0.13487652
000050 30 88 4c bd 1e b3 83 3d b3 86 c3 3a a1 6e 70 3d
       -0.049934566 0.06430648 0.0014917463 0.058699254
000060 5f a2 e8 bb c9 5c 2f 3e cb cf 16 3e b2 37 19 be
       -0.0070994343 0.17125238 0.14727704 -0.14962652
000070 cb 92 2c bc 26 c8 e6 3b c3 56 8b 3d c8 8e bb 3d
       -0.010533045 0.0070429025 0.06803658 0.09158093
000080 33 48 3c bc e6 1f 28 be dc d7 4b 3e 76 0a 29 3e
       -0.011491823 -0.16418418 0.19906563 0.16507897
000090 95 b1 e0 bd b2 a3 71 bd 83 bf 94 bd 55 5f 1d bd
       -0.10971371 -0.058994003 -0.072630905 -0.038420994
0000a0 28 46 e7 bb e8 31 34 3e c3 33 a4 3c 37 eb 83 3d
       -0.007057924 0.17597163 0.020044213 0.06441348
0000b0 15 74 b0 3d a4 e0 e3 3c 42 88 4f bd 90 02 93 bc
       0.08615891 0.027817078 -0.050667055 -0.017945558
0000c0 10 09 df 3d 90 29 aa 3d 98 04 27 be e4 1c cf 3d
       0.108904004 0.08308709 -0.16310346 0.10112932
0000d0 a2 73 06 3d 54 67 a7 39 41 a3 04 bd b5 a1 3b bd
       0.03282512 0.00031929708 -0.032382254 -0.045808513
0000e0 5e 57 1c 3c 8d 52 2b 3e 82 92 f4 bd 22 f7 2f ba
       0.009542314 0.1673071 -0.11942007 -0.0006712546
0000f0 08 e3 07 3e 2a 6d 3e 3e 35 25 19 3c 86 70 f6 3d
       0.132702 0.1859633 0.00934725 0.12033181
000100 96 80 61 3d 26 b3 19 be 2a 93 a6 bd b6 dc 15 3e
       0.05505427 -0.15009746 -0.08133538 0.14634976
000110 8f e2 b7 3d c3 e9 2c be 6d b9 9d bd 5c 0e 29 3e
       0.089787595 -0.16886048 -0.07701383 0.16509384
000120 da 09 00 3e 1a a2 13 3e 01 0a 04 be 82 3d 88 bc
       0.12503758 0.14417306 -0.12894441 -0.016630892
000130 6f dd a5 bd 78 06 08 be d2 e4 cc 3d dd 02 97 bd
       -0.08098876 -0.13283718 0.100045815 -0.07373593
000140 b9 59 75 bd ff d5 31 bc 2a c9 aa 3b ee 26 84 3d
       -0.05990002 -0.010854243 0.005211969 0.06452738
000150 b4 01 1e bc 93 6a 22 3e 79 c7 0c 3e 0c fa 93 bc
       -0.009643961 0.15860967 0.13747968 -0.018063568
000160 bd 36 bb bd 6a 9c ad 3c f3 a0 13 be 79 6d 9c bd
       -0.091413 0.021192748 -0.14416866 -0.07638068
000170 46 c2 1d be 6c 70 e9 bc 06 6d eb bc 8a 6c 21 3e
       -0.1540614 -0.02849599 -0.02873851 0.1576406
000180 cf c1 95 3d ce 6d 57 bd 51 93 32 3e 79 7c 20 be
       0.07312357 -0.052594952 0.17439009 -0.15672483
000190 4e 03 20 be 98 ed fe 3d 3f d2 c0 bd c2 3f 05 3c
       -0.1562626 0.12447661 -0.09415101 0.008132877
0001a0 25 d3 c7 3d 10 7f 3a 3d 7a d1 29 be de ed bf 3c
       0.097570695 0.045531332 -0.16583815 0.023428854
0001b0 93 56 00 bd 97 83 62 bb c1 67 82 bd 20 59 a2 3c
       -0.031332564 -0.0034563297 -0.06367446 0.019817889
0001c0 94 2a 2a be 27 17 00 3e e9 8b 88 3c ee 69 ef 3d
       -0.16617805 0.12508832 0.016668277 0.11690126
0001d0 63 12 1b be a8 95 e5 3b c8 39 26 3e c2 2e 15 be
       -0.15143733 0.007006366 0.1623298 -0.14568618
0001e0 04 40 d3 3d f0 14 1d 3e 27 4c 44 3d b3 b8 40 be
       0.103149444 0.15340018 0.047924187 -0.18820457
0001f0 f7 b5 d2 3b 04 fb fa bd 5e b9 e0 bd 52 14 17 bd
       0.0064303833 -0.12254909 -0.10972856 -0.036884613
000200 f0 73 3a be 0c 59 18 3e d5 a1 fc bb 94 bd c7 3d
       -0.18208289 0.14877719 -0.0077097216 0.09752956
000210 da c6 98 bc 90 3d 9f 3b 09 50 bb bd d9 40 c5 3d
       -0.018649507 0.0048596337 -0.09146125 0.09631509
000220 76 57 3f 3e aa 85 d2 3d 4c 98 18 3e 6d d6 72 3a
       0.18685707 0.10279401 0.14901847 0.00092635193
000230 7e 9d 1e be 8b 54 18 bd e9 91 87 bd 51 b8 2b be
       -0.15489766 -0.03719 -0.06619627 -0.1676953
000240 80 23 9c 3d c9 e1 1c be c1 16 d5 bd 48 a3 6a bd
       0.076239586 -0.15320505 -0.104047306 -0.057284623
000250 c1 44 c4 bd 6d 93 f1 bd ae 1a 2b 3d f4 ea 46 be
       -0.09583426 -0.11795697 0.04177349 -0.19425565
000260 44 68 9c 3c 06 71 bd bd a3 11 0b 3c c2 bf 3a bd
       0.019092686 -0.09250073 0.008488092 -0.04559303
000270 f2 f2 f6 bc 81 82 c8 bd 43 9a 09 3e a7 24 12 be
       -0.030145142 -0.09790517 0.13437752 -0.14271794
000280 1f 38 19 3e c0 0e 27 be d2 51 45 bd d1 97 26 be
       0.14962815 -0.1631422 -0.048173733 -0.16268851
000290 a2 ac d9 bc ab af 20 3e 59 ea cc 3d e0 ac 06 be
       -0.026571576 0.15692012 0.10005636 -0.13151884
0002a0 5b cc db bd 8f 73 df 3d a7 c5 d5 bd 07 15 ab bc
       -0.10732337 0.10910713 -0.1043809 -0.02088405
0002b0 3f 7d 02 be b6 5a d6 3d 71 7f a0 bd fb 7f 27 ba
       -0.1274309 0.104665205 -0.078368075 -0.0006389615
0002c0 bf 48 7a 3d 02 5c 14 3e a0 7b 0a be 45 43 a5 3d
       0.061104532 0.14488223 -0.13523722 0.08069471
0002d0 07 81 10 3e 27 1f ab 3d 46 3d 1c 3e 03 a2 97 bd
       0.1411172 0.08355551 0.15257749 -0.07403948
0002e0 b3 61 a7 3d ae 65 c7 3d 25 2e 86 3d 20 07 d6 3c
       0.081729315 0.09736191 0.0655177 0.026126444
0002f0 55 47 16 3b e1 d4 2d 3e 14 a9 a5 3d ab 95 97 3d
       0.00229307 0.16975738 0.0808889 0.07401594
000300 27 20 f7 bd 80 5c d9 bd dc 56 39 3e 64 c8 9d bb
       -0.120666794 -0.10613346 0.1809954 -0.004815148
000310 78 91 81 bd 9b 93 16 3e 15 0a 29 bb 88 b5 b5 bd
       -0.06326574 0.14704745 -0.0025793363 -0.08872515
000320 9d b8 02 be 39 af bb ba db bb ac 3d c0 b0 08 3e
       -0.12765737 -0.0014319188 0.08434268 0.13348675
000330 b9 a3 84 bd 4b 2c 67 ba e3 8c b5 3d e4 80 34 3e
       -0.0647654 -0.0008818551 0.08864763 0.17627293
000340 b4 48 d9 bd 74 43 05 be fc 6f 0c 3e a3 25 27 3e
       -0.1060957 -0.13014013 0.13714594 0.16322951
000350 7f a4 c7 3a fc 7e 84 bd c9 1a 05 3e 33 28 0c bd
       0.0015231519 -0.06469533 0.12998499 -0.034218024
000360 5d ef ae 3d c1 cc 4a bd d8 72 51 bd c1 4c fa bc
       0.08541749 -0.049511675 -0.051134914 -0.030554177
000370 e6 3b 01 bc d3 40 38 bd 70 69 06 be f0 30 47 3d
       -0.007887816 -0.044983696 -0.13126159 0.048630655
000380 1f 63 af 3d f2 a3 b1 ba dd 8b 03 be b7 31 bb 3d
       0.08563828 -0.0013552888 -0.12846322 0.09140342
000390 72 b1 c6 bd 1b 63 3e bd a1 8d 15 3e 2e c0 13 3e
       -0.09701814 -0.046481233 0.14604808 0.1442878
0003a0 56 a7 1b be b0 91 b6 3d fb f3 1b bb 8b bd ef bd
       -0.15200552 0.089145064 -0.0023796547 -0.11706074
0003b0 f5 0f 07 3e fc af 8c 3c 0d 39 a0 3c ef 7c 17 be
       0.13189681 0.01717376 0.019558454 -0.14793752
0003c0 be e5 21 3e c6 9f c7 3d 80 d4 be 3d e1 bf 0f 3d
       0.15810296 0.09747271 0.09317875 0.0350951
0003d0 1a f4 03 be c5 76 94 bd ed b5 06 3e b2 bc 04 3c
       -0.12886086 -0.07249216 0.13155337 0.008101629
0003e0 5a 60 8b 3d ae 90 a8 bd fd 52 15 3b 23 6c 2f be
       0.06805487 -0.082307205 0.002278506 -0.17131095
0003f0 5d 23 54 3d 03 32 3f bb d0 c8 95 bb 58 3f 94 3d
       0.051791538 -0.0029174096 -0.004571058 0.07238644

arith.constant7 f4 [8, 16]
000000 01 fe 0a bd 3c fe 6e be 5b ff a5 be 89 22 ba be
       -0.033933643 -0.2333917 -0.32421383 -0.36354473
000010 9f c2 2b be 93 81 69 bd f1 e6 31 bc 88 5d 6f be
       -0.16773461 -0.057008337 -0.010858283 -0.23375523
000020 b1 82 d3 be db ac 53 be ac 50 6b be 05 14 3e 3e
       -0.41310647 -0.20671408 -0.22979993 0.18562324
000030 a9 9b 2a be df b4 7c be 33 0f bc 3e b7 af 80 bd
       -0.16660942 -0.24678372 0.36730346 -0.06283515
000040 68 11 d7 39 7e ef 36 bd cc b8 74 3d 4e 87 77 39
       0.00041020964 -0.04466199 0.05974655 0.0002360616
000050 45 d6 7d bd 9d 43 51 3d f3 44 5b 3e 78 ec bc 3a
       -0.06197192 0.05108987 0.21413021 0.0014413735
000060 72 90 b4 b8 9d 49 a4 3d 44 06 34 3c 25 6d 85 b8
       -8.609974e-05 0.08021853 0.010987822 -6.362264e-05
000070 d4 58 84 37 83 df 49 39 cd d1 31 3e 4a 27 3e be
       1.577699e-05 0.00019252118 0.17365189 -0.18569675
000080 f6 bc 70 3c e0 e6 6c 39 77 23 81 3e d2 16 fb 3d
       0.014693489 0.00022592722 0.2522237 0.12260212
000090 79 41 ff bd b3 d5 f2 3d 32 c9 a1 3e ee 42 ac bd
       -0.1246366 0.11857166 0.31598812 -0.08411203
0000a0 5b 49 9c be ce 30 14 bc 4c a9 cb bd 9b 18 9c be
       -0.30524716 -0.009044839 -0.099444 -0.30487522
0000b0 3e 75 e7 3b af 62 f9 3d 55 fd 05 be 31 d9 80 be
       0.007063537 0.121770255 -0.1308492 -0.25165704
0000c0 71 33 86 be 1a 6f 7b 3e cc 46 88 be e8 44 38 be
       -0.26211122 0.245541 -0.26616514 -0.17995036
0000d0 55 ac 86 3e 3d 7d 79 3e d4 d4 a1 bc e1 f0 7e bd
       0.26303354 0.24364181 -0.019754805 -0.06224144
0000e0 4b a6 e4 3e 8c 52 12 be 37 14 87 bb db be 88 be
       0.4465812 -0.14289302 -0.004122283 -0.2670811
0000f0 41 36 1c 3e 77 70 6c 3e 3e 4a 25 be 8a 4d c6 3e
       0.15255071 0.23089777 -0.16141602 0.38731033
000100 f0 48 1c be d6 40 00 3e 5e 95 6f 3e 64 0d c1 3e
       -0.15262198 0.12524733 0.23396823 0.3770553
000110 a0 74 81 3d a9 9d 8b 3e 19 8d b3 be a5 7f 6d 3e
       0.063210726 0.27268723 -0.35068586 0.23193224
000120 7f 2b d6 be 0c f2 a5 bd 68 27 05 be c2 36 0f be
       -0.4183006 -0.081028074 -0.13003314 -0.13985732
000130 f0 59 93 3e 80 81 18 3a 53 5d 9b be 2a 3b 8f bd
       0.28779554 0.0005817637 -0.30344638 -0.069937065
000140 3e 37 b5 36 2c 7e 20 36 7a af 7f 3e be b5 56 be
       5.4006514e-06 2.39153e-06 0.24969283 -0.20967767
000150 ce 63 82 b7 69 12 38 3e 3a 7c e7 bd c8 e3 5c b7
       -1.5543683e-05 0.17975773 -0.11302991 -1.3166056e-05
000160 89 db 46 37 e9 49 bb 3d da c3 a7 b6 59 41 69 3e
       1.1852834e-05 0.091449566 -4.999788e-06 0.22778834
000170 c8 e8 84 3e b9 07 35 bd 4d 1c fe 3d 72 3f 61 3e
       0.25958848 -0.044196818 0.12407742 0.21996859
000180 25 ac e6 3e bc b4 ca bd 68 71 21 be aa f0 a1 be
       0.4505321 -0.098977536 -0.15765917 -0.31628925
000190 ba 97 36 3d 90 13 71 bd f8 09 92 3a 55 de cf 3e
       0.04457829 -0.058856547 0.0011141887 0.40599313
0001a0 4c 42 9e 3e c4 ea 9d be c6 c1 b9 be 53 fa 98 be
       0.30909956 -0.30843174 -0.3628065 -0.29878482
0001b0 a6 08 b2 bd f0 9d 80 be 88 49 20 3e ba b5 63 3e
       -0.08693056 -0.25120497 0.1565305 0.22237292
0001c0 1d c2 a5 37 b5 e6 2c bd eb 46 4c 3e 16 f4 66 3e
       1.9759924e-05 -0.042212207 0.19948928 0.22554049
0001d0 62 b6 1b 3d 8a a5 f7 b9 1a 39 82 3e 8b e1 60 be
       0.03801573 -0.00047234847 0.2543419 -0.21961038
0001e0 0d 68 27 b8 f9 61 01 3a 00 a8 8e b2 ea 42 2b b8
       -3.9912808e-05 0.00049355585 -1.6607373e-08 -4.0831896e-05
0001f0 cc f6 93 39 de a0 a6 b6 9e 36 2f 3d 8b 9b 5e 3e
       0.00028221903 -4.965913e-06 0.042776696 0.21739022

sequential_1_1/batch_normalization_1_2/batchnorm/mul f4 [12]
000000 a0 a9 26 40 e3 6a 09 40 3d cd 38 40 3b 8f a6 3f
       2.604103 2.1471488 2.8875268 1.301246
000010 55 9c 04 40 a5 15 c1 3f 69 ce a7 40 96 ac eb 3f
       2.0720417 1.508473 5.2439466 1.8412044
000020 70 71 a2 40 13 24 94 3f f2 9c e5 3f 08 04 6c 3f
       5.0763474 1.1573509 1.7938521 0.9219365

sequential_1_1/batch_normalization_1_2/batchnorm/sub f4 [12]
000000 32 e0 f4 be 42 d2 f8 be 5c d2 07 bf 28 86 11 bf
       -0.47827297 -0.48597914 -0.5305536 -0.5684533
000010 d3 12 04 bf 41 d2 11 bf 1b 44 2d bf d8 5e 0b bf
       -0.51591223 -0.56961447 -0.67682046 -0.54441595
000020 d6 24 1a bf 0c f1 c8 be b5 7b c4 be 29 1a 08 bf
       -0.6021246 -0.39246404 -0.3837563 -0.5316492

sequential_1_1/batch_normalization_1/batchnorm/mul f4 [6]
000000 49 44 4a 41 9b 55 90 41 32 e7 f5 40 28 fb d0 41
       12.641671 18.0418 7.684472 26.122635
000010 95 43 71 41 bd 18 bc 41
       15.0789995 23.51208

sequential_1_1/batch_normalization_1/batchnorm/sub f4 [6]
000000 be 96 75 bf d1 78 87 be 5d 82 56 bf d0 ed 6c be
       -0.9593314 -0.26459363 -0.8379267 -0.23137593
000010 ff d9 d4 be d4 d4 98 be
       -0.41572568 -0.29849875

sequential_1_1/batch_normalization_2_1/batchnorm/mul f4 [16]
000000 03 9e d5 3f 25 40 bc 3f 55 8e 96 3f e1 09 f5 3f
       1.6688846 1.4707075 1.1762186 1.914364
000010 ac b2 01 40 94 9e ab 40 1b ad b0 3f 14 6f cb 3f
       2.0265303 5.3631077 1.3802828 1.5893273
000020 2a 87 1f 40 47 f0 17 40 2b 47 e0 3f 0f b5 8a 40
       2.4926248 2.3740404 1.7521719 4.334602
000030 87 4b 0a 40 0e f8 a2 3f 71 34 41 3f e1 09 cf 3f
       2.1608598 1.273195 0.75470644 1.617489

sequential_1_1/batch_normalization_2_1/batchnorm/sub f4 [16]
000000 64 62 c2 be 66 2f 10 bf 38 02 32 bf a9 c5 3c bf
       -0.3796569 -0.56322324 -0.69534636 -0.73739105
000010 76 49 ec be 40 d6 96 be 69 8e c5 be 28 71 c8 be
       -0.46149796 -0.29460335 -0.38585213 -0.3914883
000020 94 1d ca be df 30 23 bf ba 61 39 bf 74 d9 e1 be
       -0.3947569 -0.63746446 -0.72414744 -0.44111216
000030 d2 bd 11 bf 98 70 5a bf 60 ba 53 bf 20 f1 7e bf
       -0.5693027 -0.85328054 -0.8270626 -0.9958668

sequential_1_1/conv2d_1/convolution f4 [6, 3, 3, 3]
000000 e7 42 e6 bc e6 27 ba bd 6a 8c 80 be 75 ca 64 3c
       -0.028108073 -0.09089641 -0.25107127 0.013964285
000010 76 0e 08 3e 54 77 8f 3d ba 24 61 bc be dd 19 be
       0.13286766 0.07005182 -0.013741666 -0.15025994
000020 d0 bb 84 3d bc 17 5b 3e 90 57 37 3e 1c df 5a 3e
       0.06481135 0.21395773 0.17904496 0.21374172
000030 b9 2e 36 3e 07 96 da bd 4a 05 ff bc fc b5 2e 3e
       0.17791261 -0.10673147 -0.031130452 0.17061609
000040 8e ce 01 be 4b 8e ae bd 55 39 14 3e 73 dc 47 be
       -0.1267645 -0.08523234 0.14474995 -0.19517688
000050 b3 d0 82 be 54 12 c1 3d 37 79 28 3d d8 5f a5 bc
       -0.2554985 0.09427324 0.041131224 -0.020187303
000060 de 35 4e be 9a 9e 16 3e 79 9e 42 3e 01 2a 00 3d
       -0.20137736 0.14708939 0.19005765 0.031290058
000070 b5 a5 1c be 0f 8d 10 be 68 67 9b 3d 4f e2 0a 3e
       -0.15297587 -0.1411631 0.075880826 0.13562892
000080 c4 4b 0e 3e 41 50 e8 3d bc 7b c5 bb 21 fe 62 be
       0.1389609 0.11343432 -0.006026713 -0.22167255
000090 98 b7 50 be 1e 07 76 bd 72 b8 de bd 27 2d 05 3d
       -0.20382535 -0.06006538 -0.10875024 0.032513764
0000a0 1a 1c 2c be f0 86 79 3e 46 50 85 3e 1e fa 2a bd
       -0.16807595 0.24367881 0.26037806 -0.041742437
0000b0 6b 7c a9 3d 07 e2 10 bd 25 ea 84 be 7f 35 82 be
       0.08275684 -0.035371806 -0.25959888 -0.2543144
0000c0 e5 62 ea 3d ab aa 28 3e aa fe 59 bd bc ce 60 3e
       0.11444644 0.16471355 -0.053221382 0.21953863
0000d0 f9 7e ef bd 89 61 1b bd b6 14 34 bc 63 9c 53 3d
       -0.1169414 -0.037934814 -0.010991266 0.051662814
0000e0 cc ac 1b 3d 24 be d4 3c 92 3c 21 be da 9a 63 3e
       0.03800659 0.025969572 -0.15745762 0.2222704
0000f0 59 7c 3f 3d 8d 5a 68 3e c8 ae 83 3d 79 66 0a 3e
       0.046749447 0.22690792 0.06429821 0.13515653
000100 a5 df 6c 3e f1 26 19 3d d1 79 b3 3d 78 fd a8 3d
       0.23132189 0.037390653 0.08763469 0.0825147
000110 bf 5b d6 bd b7 b2 6d 3c 43 75 75 3d 47 d5 dc bd
       -0.10466718 0.014507941 0.059926283 -0.10782867
000120 5c 58 60 3d 44 71 77 be 6c bc 0f 3c 75 4b 60 3d
       0.054771766 -0.24164301 0.008772951 0.05475946
000130 e4 c8 16 be 5e 62 60 3e 25 b1 9e 3c a1 59 64 be
       -0.14725071 0.21912524 0.019371578 -0.22299816
000140 c4 de 64 3d 31 af 6f be 75 bd 04 3e 82 ce 7a 3d
       0.05587651 -0.23406674 0.12962897 0.061232097
000150 7f f6 ba 3b 84 1f f4 bd 02 12 d9 3d 89 23 be 3d
       0.005705654 -0.11920074 0.10599138 0.092841215
000160 f8 1a 92 3c 1c 7b 66 be 66 50 82 be e7 cd 29 3e
       0.017835125 -0.225079 -0.25451964 0.16582452
000170 01 82 33 3e e3 0e 23 be a3 93 34 3e 9d 5e 34 3e
       0.17530061 -0.15923648 0.17634444 0.17614217
000180 b8 ca a5 bd 4a 1b 83 3e 55 18 52 be ee f2 82 3d
       -0.08095306 0.25606757 -0.20517094 0.063939914
000190 ba 83 34 3e f2 63 93 be 4c 1d d9 3d c3 35 9b 3c
       0.17628375 -0.2878719 0.10601291 0.018946534
0001a0 3f e1 8c 3c 36 22 82 3e 9e 6b 4d be bf e8 f1 bd
       0.01719725 0.25416726 -0.20060584 -0.11811971
0001b0 3b 53 86 be 26 2f a4 bd 1e 1a 69 be cc ab 11 3e
       -0.26235375 -0.08016805 -0.22763869 0.14225692
0001c0 da e9 75 3e a7 07 1b 3e c8 b1 44 3e 09 6e 59 3e
       0.24014989 0.15139638 0.19208443 0.21233381
0001d0 aa ff 1f 3e 30 0d d3 bd 8c 30 21 3e 75 0c 24 be
       0.15624872 -0.1030525 0.15741175 -0.16020377
0001e0 c2 e1 2c bd d2 e0 63 be d3 e2 0a 3e bb 60 7c 3d
       -0.042207487 -0.22253731 0.13563089 0.061615687
0001f0 ab 3e be 3d b1 c5 90 3c b5 dd 8f be 26 82 8a be
       0.09289297 0.017672392 -0.28098837 -0.2705242
000200 4e eb 19 3d 88 7f 95 3c b5 75 96 bd 2f 94 8a 3d
       0.03757792 0.018249288 -0.073466696 0.06766545
000210 6e dc 98 bd 04 74 2f 3e e7 a1 84 be 67 f4 ee 3d
       -0.074639186 0.171341 -0.25904772 0.1166771
000220 dd 70 b3 bc ec d8 44 3e ba 2a dd bd 24 8b 95 bc
       -0.021904403 0.19223374 -0.10799165 -0.018254824
000230 e0 50 e9 3d d5 4a 9f 3d 80 af c2 3d 23 8c 24 be
       0.11392379 0.07777945 0.0950613 -0.16069083
000240 f6 1c 35 be d0 37 f2 bc 5a 62 62 be 88 63 26 be
       -0.17686829 -0.02956763 -0.2210783 -0.16248906
000250 79 28 00 3d fb 08 53 3e 18 7c 40 3c eb f8 f8 bd
       0.031288598 0.20608895 0.011748336 -0.12156852
000260 0c 94 87 3c 22 98 f4 bc cb 08 89 3e df f7 86 3e
       0.016550086 -0.029857699 0.2676452 0.26360986
000270 cd 9d ba bc b1 6f 1f 3e 66 26 41 be c5 34 55 3e
       -0.022780323 0.1556995 -0.18862304 0.20820911
000280 b3 6d b0 bd 0d 27 81 be
       -0.086146735 -0.25225106

sequential_1_1/conv2d_1/Relu;sequential_1_1/conv2d_1/BiasAdd;sequential_1_1/conv2d_1/convolution; f4 [6]
000000 0a 30 85 3c 94 59 85 3b 2c 6d 71 bc 90 aa 28 bd
       0.016258258 0.0040695164 -0.014735501 -0.041178286
000010 f6 82 cb 3c 6c f4 ed bc
       0.02484272 -0.029047213
