code/model/spectroscopy_plastic_classifier.tflite (tflite, 10216 bytes, 8 tensors)

arith.constant f4 [16, 24]
0.29815605 -0.23928034 -0.32630488 0.3270751 -0.43045855 -0.016721815 -0.29070073 -0.049487416
0.07797252 -0.18762374 -0.22548681 -0.11729926 0.062813975 -0.08520455 0.11032084 -0.3907839
0.2531501 -0.064782545 0.38595328 -0.11227128 0.27527434 -0.050656363 0.27462658 0.10969207
-0.40765584 0.21952942 -0.11624142 0.18197116 0.04733586 0.23250017 -0.26893243 -0.22749045
-0.40651485 0.20327954 0.47982562 0.41928297 -0.2694139 -0.38634926 0.12995823 0.52748126
-0.34961426 0.23498335 0.030807104 -0.313628 -0.35214943 -0.35175076 -0.019754872 0.30934882
0.011993904 -0.30771068 -0.029122202 0.36030668 0.060206253 -0.17434826 0.110338636 0.36067876
0.39526907 -0.1572617 0.14993569 -0.06852699 0.29903194 0.2420561 -0.324546 0.2796979
0.21494141 -0.2751699 0.27141768 -0.39181972 -0.050943412 0.24474074 0.22400375 0.30279657
0.39910716 0.17336808 -0.4327011 -0.46422607 0.2684483 0.0984931 -0.288817 0.3354859
0.05373179 0.20558482 -0.46881434 -0.35860693 -0.32237157 -0.2225319 -0.22966896 -0.058160115
0.39926362 0.06664294 0.03184226 0.2736449 0.37616363 -0.44222185 0.26520675 -0.28681356
0.43028072 -0.12669906 -0.31268045 0.17275396 0.1101804 0.17691167 -0.09824935 0.19013047
-0.1234798 -0.1696112 -0.3483892 -0.39944312 -0.30908173 0.036160346 -0.43029943 -0.28954285
-0.43629557 0.28596646 -0.28505114 -0.17504065 0.32849887 -0.27521363 -0.13146363 -0.4752024
-0.08795447 0.33039182 0.004807523 -0.03994071 -0.118375786 -0.21515828 0.09729093 0.3199505
-0.02026469 0.2686506 -0.3423476 0.16379337 0.52286035 0.099568985 0.15922698 -0.03636443
0.27568328 -0.10133922 -0.26454622 0.27293557 0.346884 0.21681581 -0.1318189 0.14951673
0.17715167 0.012972306 -0.36462754 0.2979521 0.3531324 -0.15889458 -0.3798201 0.11131262
0.21590555 0.044738855 0.03990113 -0.22212516 -0.30149657 -0.23203348 -0.33833694 -0.13229005
0.4350776 0.17735127 -0.07193093 0.39531356 -0.110562354 -0.054155275 0.03177846 0.25571442
-0.33389762 -0.19989981 -0.2198946 -0.14417328 -0.3544679 0.4371447 -0.043715283 -0.27009198
0.008691673 -0.3907515 -0.3183662 0.06578887 -0.018410802 0.31749833 0.24396275 -0.13429166
-0.25050974 0.23506129 0.21283498 0.035006877 0.21805951 0.19164683 0.22125931 0.25822687
-0.21123758 0.08609605 0.10507019 0.065611504 0.26509765 -0.3804112 -0.2494817 -0.092991315
-0.071962364 0.28867656 0.3783691 -0.16776489 0.3681325 -0.17106949 -0.22236192 -0.12541763
-0.15595898 -0.03279482 -0.5116959 -0.48526844 -0.34458542 0.034468558 -0.20563571 0.55432373
0.406859 0.26227838 0.21056618 -0.053071786 -0.041096788 -0.4533347 -0.2625594 -0.4116217
0.38197586 0.15817186 -0.14097685 -0.053347103 0.26589724 -0.3436791 -0.30119103 -0.095288925
0.43443498 -0.24205545 0.24418736 0.27199537 0.19111998 0.1797109 -0.2857566 -0.072584234
-0.23336749 -0.40479124 0.35371304 0.11516913 0.09126795 -0.00063656556 0.028000902 -0.17703713
-0.34089988 -0.34187108 -0.008990556 -0.023154475 0.026486177 -0.05742147 -0.35258797 -0.41170767
00000000: e9a7 983e e805 75be 6f11 a7be 6376 a73e
00000010: 1065 dcbe 30fc 88bc bad6 94be 51b3 4abd
00000020: 0eb0 9f3d 7020 40be 04e6 66be 983a f0bd
00000030: 9da4 803d b97f aebd e4ef e13d d414 c8be
00000040: e49c 813e b6ac 84bd ab9b c53e 7cee e5bd
00000050: c2f0 8c3e 0c7d 4fbd db9b 8c3e 3ca6 e03d
00000060: 44b8 d0be 52cc 603e fb0f eebd a656 3a3e
00000070: 3fe3 413d 8614 6e3e 83b1 89be 42f3 68be
00000080: b722 d0be 8328 503e b4ab f53e 42ac d63e
00000090: 9ef0 89be 92cf c5be c513 053e 0309 073f
000000a0: a400 b3be 7a9f 703e 2e5f fc3c d993 a0be
000000b0: ee4c b4be ad18 b4be f8d4 a1bc f862 9e3e
000000c0: 1482 443c 418c 9dbe af91 eebc 1e7a b83e
000000d0: d59a 763d 5a88 32be 39f9 e13d e3aa b83e
000000e0: b560 ca3e 3609 21be be88 193e e157 8cbd
000000f0: b71a 993e 8edd 773e e52a a6be 9034 8f3e
00000100: 9a19 5c3e 12e3 8cbe 42f7 8a3e 989c c8be
00000110: 0aaa 50bd 519d 7a3e 3d61 653e 2708 9b3e
00000120: c657 cc3e 6787 313e 008b ddbe 0aaf edbe
00000130: 0e72 893e c0b6 c93d d2df 93be cfc4 ab3e
00000140: de15 5c3d d484 523e 6f08 f0be 549b b7be
00000150: e30d a5be 67df 63be 572e 6bbe 4d39 6ebd
00000160: 486c cc3e 187c 883d 086d 023d 2f1b 8c3e
00000170: 8598 c03e e76a e2be 2ec9 873e 3ad9 92be
00000180: c14d dc3e 66bd 01be a717 a0be 6ae6 303e
00000190: 43a6 e13d 5528 353e f536 c9bd 90b1 423e
000001a0: fae2 fcbd 8fae 2dbe 1260 b2be cf83 ccbe
000001b0: f63f 9ebe df1c 143d 3550 dcbe f63e 94be
000001c0: 2262 dfbe 326a 923e 39f2 91be db3d 33be
000001d0: 0131 a83e cde8 8cbe 679e 06be bb4d f3be
000001e0: 7921 b4bd 1e29 a93e 6d88 9d3b df98 23bd
000001f0: 016f f2bd 7452 5cbe 7840 c73d 8dd0 a33e
00000200: 2302 a6bc 928c 893e 2f48 afbe 73b9 273e
00000210: 2dda 053f d3ea cb3d 660c 233e def2 14bd
00000220: 5c26 8d3e f08a cfbd 9a72 87be 36be 8b3e
00000230: c89a b13e f704 5e3e 89fb 06be ea1a 193e
00000240: 3f67 353e cc89 543c 76b0 babe 2d8d 983e
00000250: c5cd b43e 43b5 22be c877 c2be dff7 e33d
00000260: 5816 5d3e 1740 373d 5e6f 233d c774 63be
00000270: c25d 9abe 2f9a 6dbe 803a adbe 0b77 07be
00000280: 7ec2 de3e 929b 353e 8650 93bd 8a66 ca3e
00000290: 846e e2bd ecd1 5dbd 212a 023d 00ed 823e
000002a0: a1f4 aabe 89b2 4cbe 0d2c 61be 29a2 13be
000002b0: d17c b5be 6ed1 df3e cc0e 33bd 7f49 8abe
000002c0: 8567 0e3c 9510 c8be e500 a3be 51bc 863d
000002d0: 40d2 96bc 248f a23e 5fd1 793e c183 09be
000002e0: d042 80be e8b3 703e 6af1 593e 5f63 0f3d
000002f0: fe4a 5f3e 113f 443e cd91 623e 5036 843e
00000300: aa4e 58be 2053 b03d 0a2f d73d 535f 863d
00000310: e1ba 873e 42c5 c2be 2178 7fbe 3b72 bebd
00000320: 0161 93bd 6acd 933e 98b9 c13e 8fca 2bbe
00000330: dd7b bc3e d72c 2fbe d8b2 63be 7b6d 00be
00000340: b6b3 1fbe dc53 06bd 81fe 02bf 1b75 f8be
00000350: 806d b0be e72e 0d3d 2b92 52be 29e8 0d3f
00000360: d34f d03e 5a49 863e a99e 573e cd61 59bd
00000370: 1b55 28bd 7c1b e8be 306e 86be 14c0 d2be
00000380: 5792 c33e cef7 213e 3c5c 10be 7e82 5abd
00000390: af23 883e b5f6 afbe b635 9abe d726 c3bd
000003a0: 436e de3e 62dd 77be 400c 7a3e fa42 8b3e
000003b0: f5b4 433e 2206 383e b04e 92be 0ba7 94bd
000003c0: e3f7 6ebe cc40 cfbe e019 b53e cbdd eb3d
000003d0: b1ea ba3d 31df 26ba 2662 e53c 3949 35be
000003e0: 6e8a aebe ba09 afbe 204d 13bc 74ae bdbc
000003f0: 8af9 d83c c632 6bbd 6986 b4be 59cb d2be

arith.constant1 f4 [16]
-0.048931975 0.19804487 -0.65157276 0.11795284 0.6306242 -0.434364 -0.11950473 -0.052501276
0.5983647 0.04243254 0.5382001 0.42284662 -0.4866497 0.19725469 -0.32611492 -0.12375539
00000000: e56c 48bd 46cc 4a3e 79cd 26bf 4291 f13d
00000010: 9670 213f f564 debe e5be f4bd 940b 57bd
00000020: 6e2e 193f becd 2d3d 7bc7 093f 5a7f d83e
00000030: 262a f9be 22fd 493e 89f8 a6be 7773 fdbd

arith.constant2 f4 [24, 32]
0.19702113 0.09004177 -0.027211433 -0.33051252 0.21506634 -0.08747078 -0.00608088 -0.37877646
-0.4196172 -0.2373568 0.3136399 0.3372361 -0.030178772 -0.18863146 0.13967694 -0.29932335
0.010136022 0.34635887 0.2451246 0.1578146 -0.056281853 -0.13552293 -0.2762029 0.111593165
0.06033497 0.102692835 0.17119868 0.10621446 0.16836902 -0.28879085 -0.22384286 0.0023530142
-0.29084754 0.12940978 -0.29937923 -0.296519 0.35336182 0.31698707 -0.36232802 -0.24129032
0.25855857 0.20569852 0.119711645 -0.46287948 0.2145014 -0.06671089 -0.105582364 -0.286189
-0.4408131 0.020205403 -0.08927524 0.32321033 0.15809028 -0.38262016 -0.01860343 0.054838855
-0.33371964 0.05925799 -0.36165646 -0.33782166 -0.08377223 -0.22052813 0.046595704 -0.15567848
0.1281464 0.0017260824 0.17595044 0.045757107 -0.17415701 0.027130181 0.32628632 0.34483725
-0.24026242 -0.30821267 -0.19644059 -0.05554596 -0.11772988 -0.06069155 -0.27163914 0.043895368
0.37478864 -0.03536932 0.40599605 -0.10882441 -0.14478499 -0.23846622 -0.21433122 0.39129475
-0.094062224 0.06773017 0.31203225 0.45246023 -0.29120073 -0.22202425 -0.102723286 -0.1806275
-0.29095855 -0.32370704 0.38508555 -0.118493095 -0.23592587 -0.08945022 -0.1836743 0.04170368
0.10641636 0.3073004 -0.10136831 -0.39075026 0.3018152 0.22565755 -0.33650383 0.24507749
0.41533405 0.18751983 -0.13366483 -0.056680042 -0.087313674 -0.41968912 0.28700927 0.30752194
-0.34402215 -0.06754861 -0.09160707 0.18525547 0.09030664 -0.008318292 -0.25144655 0.19551294
0.019267509 0.2173666 0.28462157 -0.2224991 0.09334706 0.26113954 0.0008917256 0.3248624
0.0011539179 -0.04795025 0.12149436 -0.24518456 0.4262901 0.21898228 -0.071808934 0.055493455
-0.19592361 0.4239951 0.2547662 0.08868743 -0.18129602 -0.20630032 -0.3669567 -0.23656835
-0.055642355 -0.34229693 -0.007866687 -0.10245171 -0.3366816 -0.21051106 -0.19826736 0.035395283
-0.3739002 0.22146553 -0.04841755 0.22268534 0.40399072 0.34747922 -0.22166443 -0.11614742
-0.28504434 -0.3695568 -0.22821474 -0.02471306 0.40198046 0.23175502 0.18733354 -0.3926968
0.0698373 -0.4685638 -0.06105205 0.01763265 0.43553546 -0.13824388 -0.10576927 -0.010299748
-0.16585125 0.23560287 -0.19211271 -0.12327388 0.1265766 -0.13001865 0.36225718 0.039665904
0.32149774 0.08168752 0.1369646 -0.053314105 0.03161385 -0.10669289 0.17198683 0.3906132
0.14034425 -0.24802949 -0.027859446 0.030441944 -0.08004238 -0.16850813 0.25643903 0.20419233
-0.23406976 0.3197035 -0.3834507 -0.2737086 -0.32882386 0.12622285 0.18708357 0.1140524
0.09898576 -0.4934687 0.17687906 -0.4425406 0.34242922 -0.36985463 0.07646699 0.39506072
0.30529583 -0.2880852 0.25176007 -0.28937563 0.26850873 -0.19129096 0.22941768 -0.32090312
-0.41785792 -0.46407786 -0.39171392 -0.09390082 -0.3069072 -0.01466519 -0.07852414 0.20602459
0.2692564 -0.16415596 0.12595078 0.06719813 -0.17061304 -0.3274778 0.32953247 -0.28071648
-0.026281638 0.2778264 -0.17544648 -0.3676133 0.016426452 0.22966014 0.16889656 0.14578997
00000000: e8bf 493e d267 b83d 83ea debc f038 a9be
00000010: 5a3a 5c3e e123 b3bd 1e42 c7bb fdee c1be
00000020: 11d8 d6be a90d 73be 6995 a03e 36aa ac3e
00000030: 7939 f7bc 9b28 41be 7907 0f3e e940 99be
00000040: 8f11 263c f355 b13e f101 7b3e 279a 213e
00000050: cd87 66bd 86c6 0abe 776a 8dbe f58a e43d
00000060: cd21 773d 9f50 d23d b54e 2f3e f886 d93d
00000070: ee68 2c3e 65dc 93be 1037 65be 0735 1a3b
00000080: f8e9 94be ff83 043e 3c48 99be 57d1 97be
00000090: d7eb b43e 214c a23e 0f83 b9be cf14 77be
000000a0: ca61 843e a2a2 523e 612b f53d 8afe ecbe
000000b0: 41a6 5b3e b89f 88bd 913b d8bd 5d87 92be
000000c0: 41b2 e1be cd85 a53c f0d5 b6bd d37b a53e
000000d0: 6be2 213e cae6 c3be 3866 98bc b59e 603d
000000e0: 4ddd aabe 82b8 723d 092b b9be f6f6 acbe
000000f0: c690 abbd 20d2 61be 23db 3e3d 2e6a 1fbe
00000100: cf38 033e b73d e23a 5a2c 343e ce6b 3b3d
00000110: 3756 32be 1d40 de3c 000f a73e 828e b03e
00000120: 5a07 76be 0dce 9dbe b927 49be 2984 63bd
00000130: 5d1c f1bd b497 78bd 4914 8bbe a1cb 333d
00000140: 4ce4 bf3e 6cdf 10bd b7de cf3e 55df debd
00000150: 8442 14be 7d30 74be a579 5bbe c957 c83e
00000160: b2a3 c0bd 1eb6 8a3d b1c2 9f3e dea8 e73e
00000170: 4318 95be 535a 63be 9660 d2bd 6af6 38be
00000180: 85f8 94be eebc a5be ef29 c53e 82ac f2bd
00000190: 8d96 71be ad31 b7bd 1e15 3cbe 7ad1 2a3d
000001a0: d2f0 d93d 7a56 9d3e 309a cfbd 6b10 c8be
000001b0: 8687 9a3e c612 673e 3b4a acbe 98f5 7a3e
000001c0: aaa6 d43e 3305 403e 6fdf 08be 5529 68bd
000001d0: 83d1 b2bd 7ee1 d6be e1f2 923e 8473 9d3e
000001e0: ac23 b0be ed56 8abd 7d9c bbbd 9cb3 3d3e
000001f0: b0f2 b83d 7249 08bc 9abd 80be 8b34 483e
00000200: e5d6 9d3c 5a95 5e3e ebb9 913e ced6 63be
00000210: be2c bf3d 15b4 853e b1c2 693a 5d54 a63e
00000220: 0f3f 973a 7b67 44bd 09d2 f83d a911 7bbe
00000230: b242 da3e e43c 603e 9010 93bd 1b4d 633d
00000240: 33a0 48be e315 d93e b770 823e c1a1 b53d
00000250: aaa5 39be 6440 53be c0e1 bbbe f93e 72be
00000260: 3de9 63bd 8b41 afbe 47e3 00bc 34d2 d1bd
00000270: 8861 acbe 3690 57be 9906 4bbe a5fa 103d
00000280: d96f bfbe dcc7 623e 7b51 46bd a007 643e
00000290: dfd7 ce3e cce8 b13e 00fc 62be b3de edbd
000002a0: 55f1 91be 8d36 bdbe 20b1 69be 0b73 cabc
000002b0: 62d0 cd3e 3051 6d3e 5dd4 3f3e 8e0f c9be
000002c0: dc06 8f3d 98e7 efbe b711 7abd 5972 903c
000002d0: 81fe de3e ce8f 0dbe 8f9d d8bd 46c0 28bc
000002e0: e9d4 29be e141 713e 32b9 44be 0477 fcbd
000002f0: 4c9d 013e 9c23 05be c679 b93e b778 223d
00000300: 5a9b a43e c94b a73d 7340 0c3e e45f 5abd
00000310: 867d 013d cd81 dabd 511d 303e 74fe c73e
00000320: 67b6 0f3e 71fb 7dbe 7e39 e4bc 6261 f93c
00000330: 42ed a3bd 658d 2cbe fa4b 833e cb17 513e
00000340: fcaf 6fbe 2db0 a33e a653 c4be 8923 8cbe
00000350: 9a5b a8be 9040 013e d692 3f3e 4e94 e93d
00000360: 0cb9 ca3d eea7 fcbe c91f 353e ae94 e2be
00000370: e252 af3e 965d bdbe ba9a 9c3d 6645 ca3e
00000380: bc4f 9c3e e77f 93be b2e6 803e 0b29 94be
00000390: fa79 893e c7e1 43be 78ec 6a3e 6a4d a4be
000003a0: 79f1 d5be 9d9b edbe ba8e c8be 134f c0bd
000003b0: f122 9dbe 4446 70bc 44d1 a0bd 1cf8 523e
000003c0: fadb 893e 8018 28be 3ef9 003e 2c9f 893d
000003d0: 2fb5 2ebe 2cab a7be 7bb8 a83e 12ba 8fbe
000003e0: 974c d7bc 433f 8e3e 3ea8 33be cf37 bcbe
000003f0: c490 863c 072c 6b3e 38f3 2c3e f749 153e

arith.constant3 f4 [24]
0.18899216 0.525437 0.03126704 0.090107314 0.015088261 0.05535892 -0.1918076 0.26044315
0.2769695 -0.3110722 -0.015474063 0.23741119 0.12374853 -0.3752522 -0.18259917 -0.08113484
0.29675913 0.1633739 0.14824812 0.233496 -0.38984036 -0.13634701 -0.02479378 -0.3461338
00000000: 2987 413e 0a83 063f de11 003d 2f8a b83d
00000010: c134 773c 09c0 623d 3669 44be ce58 853e
00000020: f2ce 8d3e db44 9fbe ed86 7dbc eb1b 733e
00000030: df6f fd3d 0e21 c0be 47fb 3abe 062a a6bd
00000040: d0f0 973e 7d4b 273e 5bce 173e 9319 6f3e
00000050: 2899 c7be 8d9e 0bbe 531c cbbc 7338 b1be

arith.constant4 f4 [5]
-0.05937587 -0.02125554 0.038310327 0.040211763 0.037474994
00000000: 1d34 73bd 1920 aebc 4aeb 1c3d 17b5 243d
00000010: 617f 193d

arith.constant5 f4 [5, 16]
0.10212779 0.15558544 0.20257853 0.1142843 0.4006632 -0.0019550342 -0.18248458 -0.43766817
-0.39325994 -0.39839652 0.2433032 0.44223064 0.47286606 -0.030565642 0.2918974 -0.16538022
-0.03898969 -0.1858698 -0.29680443 0.21378182 -0.3558738 -0.3093563 0.4381109 0.1730351
0.38356334 0.30057508 -0.46991804 -0.27144405 -0.09835697 0.35264218 0.27026442 0.4858906
0.35166994 0.3079078 0.1407914 0.17329735 -0.08697669 -0.043910433 0.21000615 -0.1323713
-0.5906785 -0.27517444 0.04775913 0.26051292 -0.18039219 0.2559056 -0.11498029 0.032447685
-0.060420934 0.570482 -0.31018177 -0.11118883 -0.49282894 0.3059055 -0.12580031 -0.38849375
0.21256544 -0.032227524 0.39176586 -0.26181462 -0.2838355 -0.19657457 -0.38517338 0.23770249
-0.31408346 0.37952194 -0.33336678 -0.37668693 -0.19522747 0.41072434 -0.46090096 0.1264751
0.46799698 0.118836485 -0.42366344 0.27512035 -0.257254 0.3714061 0.04195141 0.1642956
00000000: 6028 d13d ca51 1f3e bf70 4f3e e30d ea3d
00000010: ba23 cd3e 0820 00bb 3ddd 3abe 0b16 e0be
00000020: 5e59 c9be a1fa cbbe 7924 793e 0e6c e23e
00000030: 801b f23e cc64 fabc 9373 953e 6f59 29be
00000040: a7b3 1fbd a754 3ebe c0f6 97be 9fe9 5a3e
00000050: 1735 b6be f363 9ebe 1250 e03e 1d30 313e
00000060: 6a62 c43e fae4 993e 1999 f0be b7fa 8abe
00000070: 616f c9bd 848d b43e 1960 8a3e a7c6 f83e
00000080: 150e b43e 17a6 9d3e 9f2b 103e dc74 313e
00000090: d620 b2bd 6ddb 33bd da0b 573e 588c 07be
000000a0: b536 17bf aae3 8cbe 149f 433d f361 853e
000000b0: bbb8 38be 0f06 833e c97a ebbd dde7 043d
000000c0: f17b 77bd 1c0b 123f 25d0 9ebe f8b6 e3bd
000000d0: 1354 fcbe a59f 9c3e ccd1 00be a7e8 c6be
000000e0: c1aa 593e 0201 04bd 8995 c83e 910c 86be
000000f0: e352 91be d84a 49be 7235 c5be 4868 733e
00000100: 8ccf a0be b350 c23e 0daf aabe 1cdd c0be
00000110: b6e9 47be 764a d23e 36fb ebbe b082 013e
00000120: 4d9d ef3e 8b60 f33d 6aea d8be 93dc 8c3e
00000130: ccb6 83be f128 be3e 3ed5 2b3d 1b3d 283e

sequential_1/hidden1_1/MatMul f4 [32, 18]
-0.32637817 -0.21061175 -0.22803777 0.16791743 -0.08574731 0.115856886 -0.14221881 0.10909485
-0.12231765 -0.21108495 -0.12818256 0.23634799 -0.26549667 -0.27950335 0.25521627 -0.29725525
0.05898087 -0.19230399 0.15245898 -0.29191604 0.3186971 0.2222561 0.33473465 -0.218503
0.15302113 -0.06006239 0.12861983 0.062384073 0.24429072 0.04512481 -0.21760024 0.22795607
-0.25245985 0.3312995 0.2667711 0.19791296 0.23300557 0.2899002 -0.13680932 -0.037894186
0.15846035 0.08289078 0.29624817 0.3471343 0.22022958 -0.119552165 -0.22861698 0.08136317
0.13101727 0.2702478 0.27842826 -0.1325905 -0.13868974 -0.048558656 -0.2923806 0.25233096
-0.28114736 -0.24370596 -0.31058756 0.2589376 -0.27639386 -0.24036828 -0.16476767 -0.26528457
-0.021063078 0.114749916 -0.2814428 0.18806739 0.36045262 0.17054906 -0.044002928 0.012317559
-0.27324784 0.08146247 -0.2770215 0.09766624 -0.2138096 0.059463575 0.2219756 -0.32733387
-0.05038747 0.12830357 -0.21563333 -0.029918667 -0.26014048 -0.10622076 0.2570175 -0.06750839
0.2072509 0.21100056 -0.26861793 -0.0020266136 -0.1266706 0.22054118 -0.17736013 -0.002846649
-0.27750704 0.25784507 -0.054223992 0.11299365 0.27018458 -0.085937746 0.070384555 0.32676655
0.22222532 -0.2694779 0.27215913 -0.3620781 -0.101399496 0.017167423 -0.038746804 0.050557137
0.2915972 0.036393046 -0.3258061 -0.30056173 -0.02393069 -0.017624173 0.3137988 -0.22425842
0.2942922 -0.34647113 0.013815615 0.10677068 -0.14522201 0.20724995 0.1281015 -0.044344854
0.28702438 0.18002325 0.27556247 -0.3213558 0.1394429 -0.01453225 0.23841962 -0.2800523
0.07047802 0.25163034 0.1901786 0.039019708 -0.21705109 0.23983303 -0.35495946 -0.36147335
0.24194 -0.15332362 0.19267297 -0.11622803 0.25403333 0.11598061 -0.28147838 -0.19578613
0.17116648 -0.3454086 -0.1788177 0.1540513 -0.26781029 0.2565828 -0.22384576 0.27367043
0.049843933 -0.19235544 0.100505374 0.2495627 -0.18614851 -0.23587342 0.24318977 -0.1368386
-0.3331346 0.062847 0.2861371 -0.14929925 0.031995513 -0.28495923 0.36452338 0.13982895
-0.21148422 0.026660407 -0.22285475 -0.32218587 -0.33591723 0.16125254 0.2637903 -0.10743662
-0.018012928 0.32423657 -0.16218036 -0.34960687 -0.09488596 0.229876 0.060686275 0.031486258
-0.34772736 0.32092872 0.2701835 -0.36252454 -0.11223141 0.11750192 -0.11965554 0.32782447
-0.21037081 0.13825499 0.029220747 0.27000105 -0.27341232 -0.10371864 -0.22791234 -0.07928692
-0.042489287 0.30254593 -0.07013468 -0.1960039 0.24510518 0.2782719 0.26537532 0.029314598
-0.15303919 0.00084224564 -0.31313637 -0.29197553 0.30835363 0.20153944 -0.23847961 0.2787789
-0.029186685 0.037795577 0.11610183 -0.14735095 0.33932132 -0.25615188 -0.14187992 0.3372855
0.07595533 0.35377672 0.046995986 0.35909358 -0.040313534 -0.14834228 0.32308543 -0.022057135
-0.3103139 0.08319658 0.23419057 -0.015554464 -0.1036318 0.30953383 0.1862105 0.21956104
-0.19513616 -0.28685895 0.054101225 0.16169026 -0.16608965 0.09443479 -0.24354425 -0.34180734
00000000: 0a1b a7be 9baa 57be bc82 69be 8cf2 2b3e
00000010: 499c afbd 6046 ed3d cfa1 11be 1f6d df3d
00000020: ad81 fabd a726 58be 4a42 03be 3505 723e
00000030: 2eef 87be 101b 8fbe b5ab 823e d731 98be
00000040: ed95 713d 56eb 44be 351e 1c3e 0576 95be
00000050: 442c a33e 1a97 633e 5762 ab3e 40bf 5fbe
00000060: 92b1 1c3e fb03 76bd ebb4 033e 7186 7f3d
00000070: 5927 7a3e cbd4 383d 99d2 5ebe 516d 693e
00000080: 6b42 81be 17a0 a93e 3996 883e b2a9 4a3e
00000090: 0399 6e3e cd6d 943e be17 0cbe ef36 1bbd
000000a0: 6e43 223e a4c2 a93d d7ad 973e 96bb b13e
000000b0: dd83 613e c4d7 f4bd 921a 6abe bca1 a63d
000000c0: 6429 063e eb5d 8a3e 268e 8e3e cec5 07be
000000d0: af04 0ebe 71e5 46bd e9b2 95be 8631 813e
000000e0: 8cf2 8fbe 0e8e 79be 5505 9fbe 7893 843e
000000f0: 7f83 8dbe 1a23 76be dbb8 28be 61d3 87be
00000100: 7a8c acbc 0102 eb3d 4519 90be bd94 403e
00000110: 3f8d b83e 6aa4 2e3e 6a3c 34bd 96cf 493c
00000120: 24e7 8bbe ccd5 a63d c3d5 8dbe 3d05 c83d
00000130: e7f0 5abe 1490 733d 924d 633e 4e98 a7be
00000140: 1763 4ebd 0362 033e fcce 5cbe fe17 f5bc
00000150: 2231 85be 458a d9bd cc97 833e d741 8abd
00000160: 9439 543e 8810 583e 4a88 89be efd0 04bb
00000170: f0b5 01be 8cd5 613e e59d 35be d88e 3abb
00000180: 6715 8ebe 4504 843e fa19 5ebd 3769 e73d
00000190: a255 8a3e 2100 b0bd c725 903d f24d a73e
000001a0: 098f 633e 02f9 89be 7158 8b3e 4d62 b9be
000001b0: 8aaa cfbd b2a2 8c3c f8b4 1ebd 0015 4f3d
000001c0: 3a4c 953e e010 153d 0fd0 a6be 3ae3 99be
000001d0: 4b0a c4bc 9260 90bc 3caa a03e 00a4 65be
000001e0: 78ad 963e aa64 b1be e45a 623c 96aa da3d
000001f0: 14b5 14be 5539 543e 0a2d 033e f3a2 35bd
00000200: dcf4 923e 0458 383e 8616 8d3e bf88 a4be
00000210: 1fca 0e3e ad18 6ebc 4624 743e 0463 8fbe
00000220: c856 903d b1d5 803e 2ebe 423e 21d3 1f3d
00000230: a442 5ebe ca96 753e 3fbd b5be 0913 b9be
00000240: 1fbf 773e de00 1dbe 104c 453e f608 eebd
00000250: a810 823e 3e87 ed3d ef1d 90be 297c 48be
00000260: 4446 2f3e 65d9 b0be fd1b 37be a0bf 1d3e
00000270: 6e1e 89be d25e 833e d337 65be 881e 8c3e
00000280: 2729 4c3d d3f8 44be c3d5 cd3d 5d8d 7f3e
00000290: b79d 3ebe cd88 71be bd06 793e 6b1f 0cbe
000002a0: 9e90 aabe eeb5 803d 9080 923e e7e1 18be
000002b0: ba0d 033d 2de6 91be cfa2 ba3e 522f 0f3e
000002c0: 528f 58be ed66 da3c 0934 64be 8cf5 a4be
000002d0: 58fd abbe 631f 253e 860f 873e bb07 dcbd
000002e0: d98f 93bc 5602 a63e 9c12 26be acff b2be
000002f0: 9253 c2bd 9d64 6b3e 2c92 783d bcf7 003d
00000300: 5209 b2be c550 a43e 7e55 8a3e d19c b9be
00000310: 95d9 e5bd d9a4 f03d f70d f5bd 9cd8 a73e
00000320: 726b 57be b792 0d3e 5960 ef3c 943d 8a3e
00000330: b3fc 8bbe 706a d4bd da61 69be 2e61 a2bd
00000340: 3f09 2ebd 4de7 9a3e c5a2 8fbd 3fb5 48be
00000350: dafc 7a3e a879 8e3e 46df 873e 2b25 f03c
00000360: 4eb6 1cbe 26ca 5c3a 6953 a0be d17d 95be
00000370: 87e0 9d3e 5b60 4e3e 0034 74be 1cbc 8e3e
00000380: ea18 efbc 89cf 1a3d ccc6 ed3d 2be3 16be
00000390: 86bb ad3e 5726 83be f848 11be afb0 ac3e
000003a0: 788e 9b3d 3922 b53e dd7e 403d 1ddb b73e
000003b0: ce1f 25bd 0ae7 17be 746b a53e 2ab1 b4bc
000003c0: 77e1 9ebe f862 aa3d a7cf 6f3e 27d8 7ebc
000003d0: e93c d4bd 387b 9e3e f7ad 3e3e 9cd4 603e
000003e0: c6d1 47be 2ddf 92be 3f99 5d3d 2292 253e
000003f0: 6813 2abe 0767 c13d aa63 79be 5f01 afbe

sequential_1/hidden1_1/Relu;sequential_1/hidden1_1/BiasAdd f4 [32]
0.027380982 -0.019972447 0.010004556 0.04763125 0.041424587 -0.008324875 0.010234588 -0.031340797
-0.015569327 0.0036672049 0.0010612321 0.017728718 0.020037916 -0.011841532 -0.020862257 0.026069112
-0.014674143 -0.0003167029 -0.0040394412 0.019398453 -0.025285022 -0.021279326 -0.004915122 -0.0039810166
2.4836167e-05 0.014089253 -0.017840385 -0.0109120775 0.03199113 -0.009040097 0.029197903 -0.0012082543
00000000: 154e e03c 429d a3bc 26ea 233c fc18 433d
00000010: d4ac 293d 0e65 08bc f9ae 273c 355f 00bd
00000020: 7e16 7fbc 7d55 703b 0a19 8b3a d13b 913c
00000030: 8e26 a43c fc02 42bc 53e7 aabc e48e d53c
00000040: d16b 70bc 250b a6b9 4a5d 84bb 81e9 9e3c
00000050: 8922 cfbc fb51 aebc 080f a1bb 3073 82bb
00000060: 4357 d037 9cd6 663c 0026 92bc 92c8 32bc
00000070: 2209 033d ea1c 14bc 7130 ef3c 495e 9eba
